app/word2vec_model.pth (torch, 44418 bytes, 2 tensors)

embedding_center.weight f4 [2678, 2]
00000000: 1fb2 8cbf 2c93 c73f c8d2 863c 0986 c53e
00000010: 9b79 143f 2ad3 09bf 0ad5 43bf 6053 8c3e
00000020: 6b47 bd3d b3a1 da3e f0f0 8f3f 7aa0 4fbf
00000030: a9a5 103f 09f7 e3bf c75d ae3d 383d d93e
00000040: 271c 38bf c687 9ebe 2c0c 93be 8dc9 6a3e
00000050: 8392 d9bd df36 aa3f 40cf 4ebf 985d fd3d
00000060: dbdd dcbc 8771 f73e be3b 6e3e 17a9 cd3e
00000070: c858 723e 9ce4 06bf 8e9d ab3d 70e1 c63e
00000080: e808 133e 7144 a23e fa02 9a3f d331 1bbe
00000090: d607 c7bd cd60 af3f 6a10 20bf 5ce8 383e
000000a0: f336 7dbe 1d92 eb3d 639c 2dbe 807b 303f
000000b0: e13c 06bf 2613 2fbd a752 533f e9c2 3fbf
000000c0: 3664 b33d 6515 9b3e 19ef 14bf 321d d63e
000000d0: 55a5 733d 50c1 463f 09ee 1e3e 32d8 d23e
000000e0: 9ac5 8e3d 32d3 c7bd b95a cf3d 3a0a 733e
000000f0: d4b1 21be da6b 6cbf 176a bf3e 9110 1f3f
00000100: 8de8 b23d 1a74 483e 6ba5 ac3d 6fdc 4c3e
00000110: fb0e 7dbe a229 c7be 3321 f2be 483e 0d3e
00000120: 3349 0bbe 0276 6c3e 331d 95bd b7db b23e
00000130: dc9b 9c3e 24cc aa3c 202f c13c 211c 353d
00000140: 6558 9ebe 395a b1bb 2941 78bf 0e9d 3dbf
00000150: fbcf 803d 80dc 5f3b 83a6 6fbf 4d44 86bf
00000160: 07fb d63d 868d ac3e defe 91bb c07c 0cbe
00000170: 0654 033e 3053 b03e 3681 003e f01f d53e
00000180: 3c50 8ebf 5500 093f e553 dd3d 0aaa b53e
00000190: a393 a3bd 667a 1bbf 0579 0e3d 60e5 893e
000001a0: ded5 073e 5d03 803e 2709 d3be 55a6 80bf
000001b0: 84f4 de3d d323 17bf 3a93 983d ca9e be3e
000001c0: 345d 3a3f e2a7 46be 80e7 0a3e 3976 883e
000001d0: 1cbe c1bc f7b0 53bf edcf 633e 4a9a 813f
000001e0: 9420 033e 513c 3a3e 6cd9 ad3d 7232 c23e
000001f0: bc16 073e d1f7 883e 857a ed3d 35c3 1c3e
00000200: 596a ba3e 425d a43f 730a 473e 75ce e23c
00000210: 54b7 13bd 9d47 793f 98f2 40be bdf4 413e
00000220: 1a2e 0f3e 7e90 bd3e 017a d1bd 5e4b 173f
00000230: 1b7a 533e 7ae7 153e caea 543f 32ad eebd
00000240: 0f97 12bd 5fb9 363f 3104 913d 0cd3 c33e
00000250: 7148 c23c 3d0d 933e 4c03 1a3e 214c d23e
00000260: 1c0d 6c3e 5df6 fbbd 6979 89be 6b3a c63f
00000270: 3e75 9fbe 7ee0 e73e 9787 9f3e 5003 8bbe
00000280: 0847 d13d d088 1d3e 5da1 923f 2a11 d4bf
00000290: 86ff 443e ed8b a83f b412 1e3e fb2a d33e
000002a0: 8559 fdbc 9e78 233e fc79 623f f94e 40be
000002b0: 7a22 c33e 58fd 793e 0355 84be b229 ddbe
000002c0: 3c53 bdbe 3850 073f 103f 66bf 445b 8bbe
000002d0: dda9 053d 5472 e5be 0e33 ff3d a5c9 623c
000002e0: 3c60 d93c c17c af3e a1af 4e3c b940 c93e
000002f0: d6a6 133e aa5c c33e 1c3c fc3c e697 503e
00000300: eb75 903e b8dc 5cbc 6160 09bf 946b 33bf
00000310: 2808 0f3f ac4d 373e ac46 43bc f81a 813f
00000320: 10e6 0a3e 9c29 d53d e19a 543e ea1b 653e
00000330: 2ea1 633d 3711 7c3e 01ec 1e3e 4ae0 d23e
00000340: 5cf8 bfbf e1ff 8abf 288d 033e b3c4 b73e
00000350: b718 353f 1f4a fdbd bf8f b23f 50ed 053f
00000360: 13b3 b33d abd7 d03e f703 8cbf f270 1e3e
00000370: 537a 6b3d a71f 8a3e 7a77 6ebe f7b6 d73d
00000380: fc61 d43e bdb2 68be 5389 fd3e fc5e c5bd
00000390: c722 463d 5c73 8f3e 92ee cbbe 2eae 44bf
000003a0: 90fa 17bf 7693 babe 795a cabe e7f3 4dbe
000003b0: 30b7 183e 8670 01bd 4604 a8bf d55d 48be
000003c0: a800 673f bb9c b0be 4821 cdbc 2e76 a0bd
000003d0: 3620 843f 1621 b5bc ccc1 eb3d 6570 823e
000003e0: 49bd 00c0 d6d4 483f b302 1f3e 9259 c33e
000003f0: 99e1 1e3f 796e f83e 8b50 29be 346a a93c
-1.0991858 1.5591788 0.01645793 0.38578823 0.57998055 -0.53837836 -0.76496947 0.2740736
0.092421375 0.42701492 1.1245403 -0.8110424 0.5650278 -1.7809764 0.0851398 0.4242952
-0.7191796 -0.30962962 -0.28720224 0.22928448 -0.10623648 1.3297995 -0.8078499 0.12371367
-0.026961258 0.48328802 0.23264977 0.40168068 0.2366668 -0.5269258 0.083796605 0.3884387
0.14358866 0.31692842 1.2032158 -0.15155725 -0.097182915 1.3701416 -0.62525046 0.18057388
-0.24727993 0.11502478 -0.16954188 0.68938446 -0.52436644 -0.04274287 0.8254799 -0.74906784
0.08759348 0.3028976 -0.58177334 0.4181915 0.059483845 0.7763872 0.1552049 0.4118057
0.06971283 -0.09757079 0.10124726 0.2373437 -0.15790492 -0.9235207 0.37385628 0.62134653
0.08735762 0.19575539 0.084299885 0.20005964 -0.24712746 -0.3889895 -0.47290954 0.1379329
-0.13602142 0.23091891 -0.0728096 0.34933254 0.3058766 0.020849295 0.023582041 0.04421628
-0.30926815 -0.0054123667 -0.96974427 -0.7406777 0.06289669 0.0034158528 -0.9361345 -1.0489594
0.104970984 0.33701724 -0.0044554314 -0.13719463 0.12825021 0.34438467 0.1254929 0.4162593
-1.1118236 0.5351613 0.10807017 0.35481292 -0.07987144 -0.6073364 0.034783382 0.26932812
0.13265178 0.25002566 -0.4121792 -1.005076 0.108864814 -0.5903904 0.07449956 0.3723052
0.72798467 -0.1939998 0.13564873 0.26652697 -0.023650222 -0.826919 0.22247286 1.012521
0.12805396 0.18187071 0.084887356 0.37929112 0.13192266 0.2675157 0.11595634 0.1530884
0.36409262 1.284096 0.1943758 0.027686337 -0.036063507 0.973749 -0.18842542 0.18941016
0.1398243 0.370243 -0.102283485 0.59099376 0.20652048 0.14639083 0.8317076 -0.11654128
-0.035788592 0.71376604 0.070808776 0.38246953 0.023716183 0.28721038 0.1504032 0.41073707
0.23051876 -0.123028494 -0.2685044 1.5486578 -0.31144136 0.4528846 0.31158134 -0.27150965
0.10218626 0.15384221 1.1455494 -1.6567738 0.192381 1.3167702 0.15436822 0.4124373
-0.030926475 0.1596398 0.88467383 -0.18780126 0.3811224 0.24413049 -0.2584611 -0.43195873
-0.36977565 0.5285678 -0.89939976 -0.27218068 0.032632697 -0.44813788 0.1246091 0.013842021
0.026535146 0.34274867 0.012615115 0.39307192 0.14419112 0.38156635 0.030790381 0.20370445
0.28214964 -0.013480358 -0.5366269 -0.70086026 0.5587182 0.17900723 -0.011918705 1.0086355
0.13564324 0.10408327 0.20762207 0.2237393 0.055573635 0.24615942 0.15519716 0.41186744
-1.4997668 -1.0859338 0.12846816 0.35892257 0.70740837 -0.12367653 1.3950118 0.52315235
0.0877439 0.40789542 -1.093871 0.15472773 0.057489704 0.26977274 -0.23287764 0.10532945
0.41481006 -0.22724433 0.49518833 -0.096372575 0.04837301 0.280177 -0.39830452 -0.7682828
-0.59366703 -0.3644063 -0.3952215 -0.20112573 0.1491363 -0.03160145 -1.3126304 -0.19567044
0.90235376 -0.34494576 -0.025040284 -0.07835041 1.032233 -0.022110503 0.11511573 0.25476375
-2.011553 0.7844976 0.15528373 0.38154274 0.62062985 0.48521784 -0.16534631 0.020680524

embedding_outside.weight f4 [2678, 2]
00000000: 587d 93bf e207 32bf a8f9 8e3f 333b 0fbf
00000010: 73b2 96bf d1e5 f93e 9057 0b3f d39a bf3e
00000020: b387 5bbf 6f51 38c0 1b17 753f 38be f03e
00000030: 6518 1bbf e7fb 623e 0266 1d40 1cbc 42bf
00000040: 25d0 39bf d1ee 3e3c f062 d6bf a1bd 94bf
00000050: 78bc 44bf 5479 ecbf fb1d a8bf 5a1a 33bf
00000060: 4c1c f13f 3cc3 bcbf 72c2 b63c cfc5 d53f
00000070: f239 26bf 2f17 ad3e 0ee8 7bbf 55d0 c23f
00000080: b2ec 4fbf 5bb6 24bf ac48 4f3f aa45 60be
00000090: f30b 96bf dd93 083f 7b2e 423f 23d6 89bf
000000a0: 555d 9ebe e3d3 75bd df78 3b40 022d bcbf
000000b0: f16e 313f 642e 68bf f4db 68bb 99d9 efbf
000000c0: 5984 0ebd 025e 023e 8096 213e 9404 7ebf
000000d0: 8dae 0140 a4b3 943f 9abf da3c 66a5 e53f
000000e0: 6c70 413f d7b9 ff3f d051 2e3f d607 86be
000000f0: 7133 41bf 4fd8 963e aa5c 36be 1229 743f
00000100: 5c1c adbf be54 a33f 2737 8abe b769 893e
00000110: 7679 00bf e0ed bdbe 7528 8d3d 1fad 7d3f
00000120: 7d53 4c3c 41f1 3b3f d5ac 4abf 94b9 d8be
00000130: 4d02 c6bd b8d5 e2bf 4f90 f03e b118 ea3f
00000140: 368e 9fbe 775d fdbe 1be0 463f e5ef 433d
00000150: ca7c 343f 23c7 58bf faea 9abe 1708 e53f
00000160: 14a0 f23e 7047 be3f 97ff 13bf b4b9 3ebf
00000170: 20f2 ac3e f795 d3bf 7b7d e4bf d4b1 573f
00000180: f979 83be ea97 d73e 8f3b be3f 6ae2 c83f
00000190: 6330 09bf 1536 52bf d8d8 a9bf 2de8 723f
000001a0: 8776 003f 0de5 b9bf 74da 0d3f 111c 01c0
000001b0: a7be 5bbf 4b2a cdbd e034 663f 36f3 e7bd
000001c0: 8848 9f3f a18f d3be 8edc ebbd a5ff 313f
000001d0: dfa7 af3f 6bff a1be 36c8 dabf fdd7 0ac0
000001e0: ab93 d13f 0383 da3d 7701 9c3d 35f7 8fbd
000001f0: 12cb 9c3d 28f9 12bd 9e3d ce3e 87cf 593f
00000200: 26e7 b6bf ba82 6e3e 1d60 273e 07c4 0e3f
00000210: dcc0 af3f f098 0640 7937 523f 5101 09bf
00000220: df0d 15bf 91dd b1bf 0dfa fc3e aa87 73be
00000230: 570d 2abf c2e2 1abf 8768 4d3f 4f1b 993f
00000240: 47ad 28bf 192a 82be bfcb 893f 603d 17bf
00000250: 5ba6 e53f 0e63 2dbf 6787 1c3f 664e 0dbf
00000260: c80a aabd a289 92bf 843d 0f3f ceeb 52be
00000270: 20d5 953e 87ab 0340 d4f4 15bd 0297 da3f
00000280: 4fd9 263f a1e0 f3bf f321 b83f 873b f3bd
00000290: 7904 473f 6b44 21bf 63ea 67bf 3c34 2b3e
000002a0: 1aba 3f3d 974c 713f fcd8 b53e b0ec 923f
000002b0: f9d4 2bbf 3dcb 1e3f 0b5f 303c 788a 3a3f
000002c0: 10ba 0d40 2e25 2740 c5f5 e0be a9b8 0e3f
000002d0: c88f b23e e753 a23f 5309 31bf 0be6 59be
000002e0: 738d f33e 9f12 4bbd e530 e83d 38bf 8ebf
000002f0: 9b79 18bf f379 243f 8613 83bf a3b6 b4be
00000300: e79d 49be 220b 90bf 1467 73bf 4052 dabe
00000310: e5d8 903f 1b0d 91be 55b7 3e3f 5af1 543f
00000320: 7f52 e93d 536b acbe 38db e2bd 562b 443f
00000330: 6821 0fbf 12f1 123f c482 67bf fa73 8b3f
00000340: 759e febf c3b8 e33f d991 65bd 9b6b a8bf
00000350: f771 f3bd 0f3f 76be 099d 91be cfa2 52be
00000360: d8f0 50bf 743f 1a3f 6298 d53e af66 16be
00000370: c9c8 5f3e 1087 5b3f a471 3740 7d4c 0ec0
00000380: 19d3 a33e a0e3 5a3d 2ea9 d83f 84f1 c23e
00000390: 4175 cbbf 3f07 67bf 93a7 e6be f91e 863e
000003a0: ada6 653f 3c95 bfbf b9f7 113f 3916 62be
000003b0: a079 dcbd aac1 debe 919f 4cbe 2a51 1c40
000003c0: 7fe9 22c0 4651 543d d924 6e3f f4a1 8cbc
000003d0: e70b a23f 7afd 92be a702 703f 1d11 873e
000003e0: 88b8 cebf a7a3 013f 0323 bc3e f428 d5bf
000003f0: a2b5 e1bf c277 fabe d611 ae3f 3f02 573f
-1.1522627 -0.6954328 1.1169939 -0.55949706 -1.1773208 0.48808149 0.54430485 0.3742281
-0.85753936 -2.8799703 0.9573838 0.47020125 -0.605841 0.22166406 2.459351 -0.7606828
-0.7258323 0.011653618 -1.6748943 -1.162037 -0.7685008 -1.8474526 -1.3134149 -0.69962084
1.883676 -1.4747081 0.022309516 1.6700991 -0.6493217 0.3380675 -0.9840096 1.5219828
-0.81220543 -0.6434075 0.80970263 -0.21901575 -1.1722397 0.5335062 0.75852174 -1.0768474
-0.30930582 -0.060016524 2.9292524 -1.4701235 0.6930991 -0.90695786 -0.0035531493 -1.873828
-0.034794185 0.12731174 0.15780067 -0.99225736 2.0262787 1.1617322 0.02670269 1.7941101
0.7556217 1.9978589 0.68093586 -0.26177853 -0.7546912 0.29461905 -0.17808786 0.9537517
-1.352428 1.2760236 -0.26995203 0.26838467 -0.50185335 -0.37095547 0.06892482 0.99092287
0.012471077 0.73415 -0.7916997 -0.42329085 -0.096684076 -1.7721472 0.469851 1.8288785
-0.31163186 -0.4948537 0.7768571 0.047836203 0.70502913 -0.8467886 -0.30257398 1.7893094
0.47387755 1.4865551 -0.57811874 -0.7450211 0.33778477 -1.6530141 -1.7850794 0.8425572
-0.25678995 0.4210809 1.4861926 1.5694096 -0.5358946 -0.8211377 -1.32693 0.9488552
0.5018086 -1.4523026 0.5541146 -2.017338 -0.8583779 -0.10017832 0.8992443 -0.11325686
1.244401 -0.41320518 -0.11516677 0.6953071 1.3723105 -0.3164018 -1.709235 -2.1694329
1.637319 0.1066952 0.07617467 -0.07029573 0.0765592 -0.035882145 0.40281385 0.85082287
-1.4289291 0.23292056 0.16345258 0.55767864 1.3730731 2.1030846 0.82115895 -0.53517634
-0.5822429 -1.3895742 0.49409524 -0.2378222 -0.66426605 -0.60502255 0.8023762 1.1961459
-0.658894 -0.25422743 1.0765303 -0.59078026 1.7941393 -0.6772927 0.6114411 -0.5519775
-0.083028376 -1.1448252 0.5595324 -0.20597765 0.29264164 2.0573442 -0.03661044 1.7077334
0.65175337 -1.9052926 1.438536 -0.11876588 0.777412 -0.6299502 -0.9059202 0.16719145
0.04680834 0.9425749 0.35517108 1.1478481 -0.67121845 0.62028867 0.0107648475 0.72867537
2.2144814 2.6116443 -0.43937507 0.5575052 0.3487532 1.2681855 -0.6915485 -0.2127916
0.47568855 -0.049578305 0.11337451 -1.1152105 -0.59560555 0.6424858 -1.0240333 -0.3529559
-0.19689141 -1.1253397 -0.9507916 -0.42640877 1.1316191 -0.2833031 0.7449849 0.83180773
0.11392688 -0.33675632 -0.11076969 0.76628625 -0.5591035 0.57399094 -0.9043391 1.0894768
-1.9892107 1.779076 -0.056047294 -1.3157839 -0.118869714 -0.24047492 -0.2844012 -0.20569919
-0.816175 0.6025307 0.4171782 -0.14687608 0.21853937 0.85752964 2.866311 -2.2234185
0.31996992 0.053439736 1.692663 0.38074887 -1.5895158 -0.9024543 -0.45049724 0.26195505
0.8970745 -1.4967418 0.5701862 -0.2207879 -0.10765386 -0.4350713 -0.19982745 2.4424539
-2.5455015 0.05183532 0.93024975 -0.017167069 1.2659882 -0.28709012 0.9375405 0.26380244
-1.6150064 0.5064034 0.36745462 -1.6653123 -1.7633555 -0.48919493 1.3599193 0.839878
