config_model_files/word2vec_model_neg_sam.pth (torch, 44530 bytes, 2 tensors)

embedding_center.weight f4 [2678, 2]
-0.95299727 0.9090253 -1.0926387 -0.29530147 0.39260936 -0.102387354 -1.0003067 0.25230744
-1.8133314 0.9982394 0.08784417 0.59198457 0.5382526 -1.1564046 0.34186152 -0.7725734
0.029619792 0.61991805 1.3028468 -0.9030201 1.4786311 -0.4319418 0.6443728 -1.4311572
1.9789032 -0.4551112 2.065463 -1.4080443 -1.2078145 0.9405058 0.8451046 0.20537513
2.1133428 -1.595894 0.57704484 -0.83679944 1.8379463 0.8882354 0.29361236 -0.16288999
-1.101751 -0.11893696 -0.4689413 -1.1184379 0.0672911 -1.9457369 0.6284529 0.5292656
-0.45879424 0.55733705 0.004173251 -0.5287423 1.7515984 -0.45121527 1.5646489 -1.500573
0.70820576 0.17384239 -0.30541605 1.165983 1.7554952 0.031678647 0.27477646 -0.108378954
0.83384943 -0.6418531 0.033265974 0.29037702 1.040684 0.008544646 -1.263331 -0.8115089
-0.42261487 1.3565613 -0.6981585 0.60737395 1.0625684 0.23286344 1.2112334 -0.87979347
0.20466767 -1.9994156 1.0226396 0.6870439 1.4276159 0.5354278 0.23543674 -1.4841547
-1.8064029 -0.3447247 -0.25053474 1.7100228 1.0740546 -0.39926913 0.42882776 -0.35273552
-0.27849382 0.70665133 1.3478358 -1.2787483 -0.64914405 2.0236104 -0.75822335 0.07139516
2.5187955 -0.3717413 0.61419195 0.7342246 -0.20921397 -0.88360703 2.598644 0.85448265
0.76276124 0.15466242 -1.1966614 -0.92870253 1.2977035 -0.94497347 -0.23128791 -1.3582656
-0.0755565 0.9510733 -0.409488 -0.036572866 -0.9915844 0.874797 0.5235878 0.69563043
1.0783408 1.4225817 0.97358316 -2.38775 0.051580083 -1.7071824 -0.18734333 -0.5796191
1.3136759 0.24764894 -0.4777474 -1.6903846 1.1412845 0.9586904 0.4262525 -1.0460899
-1.7339579 0.74188393 2.5512433 0.71131974 1.8219641 0.013718849 0.3886601 -0.67686987
-0.2300265 1.371601 -0.8793112 -0.38864854 0.43368325 1.1436291 -0.87042385 1.7215816
1.0273912 -0.6965876 -0.64820254 2.0747907 -1.6033132 -0.95675224 0.20768565 -0.11440359
-0.44711992 -0.13133474 0.61701715 0.2014839 -1.0259717 -0.1851731 0.16036935 0.36770937
-1.2888105 0.5199613 -1.6150042 -0.49323002 0.33183053 -1.1198311 0.31360298 -1.0716361
0.14593464 1.140234 0.02627209 -0.7126444 2.0806384 -0.328268 -0.5703052 0.5799288
-1.2872453 -0.37288007 0.26362377 -2.2529325 0.61459595 0.35628915 0.22466245 0.42509103
-0.35642397 -1.2642643 0.048515882 0.4335814 0.81322557 0.8379852 2.4666207 0.4937064
0.34170598 -0.15962356 -1.3507167 -0.25528538 -0.21681027 -0.9454231 -1.8156983 -1.521114
-0.8694805 0.476348 0.09321099 -0.07481411 -1.2177694 0.6270333 -0.13647766 -0.7646963
1.0492554 -1.0754305 -1.035446 1.3148324 -0.7121536 -1.2084674 0.984106 -1.435806
0.17289849 0.2918264 1.8145938 0.21129288 0.37169877 1.0913521 -0.16900715 -0.66680664
1.004153 0.4970694 0.1308287 0.13604231 -0.5250423 -1.1135298 0.04255097 -0.7465276
0.8087735 0.3376554 0.93242764 -2.0303736 0.27471778 1.463438 1.8733073 0.52044106
00000000: a1f7 73bf e2b5 683f 96db 8bbf c131 97be
00000010: 1804 c93e 76b0 d1bd 0d0a 80bf 712e 813e
00000020: 3e1b e8bf 9e8c 7f3f a5e7 b33d 4d8c 173f
00000030: ecca 093f 1105 94bf 7908 af3e 5fc7 45bf
00000040: 35a5 f23c f3b2 1e3f afc3 a63f 532c 67bf
00000050: c943 bd3f 7a27 ddbe 9ef5 243f 2930 b7bf
00000060: b34c fd3f 5604 e9be 8c30 0440 cc3a b4bf
00000070: aa99 9abf fdc4 703f c658 583f dc4d 523e
00000080: 0241 0740 4146 ccbf 36b9 133f 7d38 56bf
00000090: d341 eb3f 6563 633f 5c54 963e a2cc 26be
000000a0: 2d06 8dbf 3995 f3bd 1319 f0be f928 8fbf
000000b0: ebcf 893d e80d f9bf 4ae2 203f f37d 073f
000000c0: 14e7 eabe a4ad 0e3f c4bf 883b a85b 07bf
000000d0: 6034 e03f b005 e7be 6a46 c83f c712 c0bf
000000e0: f94c 353f bd03 323e 7e5f 9cbe ee3e 953f
000000f0: 11b4 e03f 78c1 013d 80af 8c3e c9f5 ddbd
00000100: 2877 553f 7c50 24bf e741 083d 4cac 943e
00000110: 2235 853f d8fe 0b3c d5b4 a1bf 0cbf 4fbf
00000120: fa60 d8be cda3 ad3f 84ba 32bf dc7c 1b3f
00000130: 3e02 883f c173 6e3e b209 9b3f 253a 61bf
00000140: 6794 513e daec ffbf dbe5 823f 1ce2 2f3f
00000150: 1ebc b63f cc11 093f 5416 713e c8f8 bdbf
00000160: 3638 e7bf c27f b0be 1746 80be 07e2 da3f
00000170: 9f7a 893f 016d ccbe 508f db3e c099 b4be
00000180: be96 8ebe 1ae7 343f e285 ac3f 06ae a3bf
00000190: 4e2e 26bf d582 0140 ed1a 42bf a037 923d
000001a0: f233 2140 e054 bebe af3b 1d3f 25f6 3b3f
000001b0: 303c 56be 1234 62bf 2f50 2640 60bf 5a3f
000001c0: 5244 433f d35f 1e3e 332c 99bf 73bf 6dbf
000001d0: 261b a63f c8e9 71bf bdd6 6cbe a6db adbf
000001e0: 5ebd 9abd 8a79 733f 69a8 d1be 6ecd 15bd
000001f0: 7ad8 7dbf b2f2 5f3f da09 063f d614 323f
00000200: 1207 8a3f 2817 b63f bf3c 793f e5d0 18c0
00000210: a345 533d f484 dabf eed6 3fbe eb61 14bf
00000220: 8826 a83f af97 7d3e 4f9b f4be 865e d8bf
00000230: 9c15 923f bc6c 753f c53d da3e 46e6 85bf
00000240: 55f2 ddbf 1bec 3d3f 9247 2340 0d19 363f
00000250: 1f36 e93f 06c5 603c 75fe c63e 5847 2dbf
00000260: 118c 6bbe 9f90 af3f 8a1a 61bf f1fc c6be
00000270: bb0b de3e 7062 923f 19d4 5ebf c95c dc3f
00000280: 8e81 833f 9153 32bf 9af0 25bf 5fc9 0440
00000290: 5e39 cdbf b7ed 74bf 8cab 543e 6e4c eabd
000002a0: e7ec e4be 9d7c 06be d6f4 1d3f cc51 4e3e
000002b0: 0a53 83bf 049e 3dbe dd37 243e 6744 bc3e
000002c0: bef7 a4bf 2f1c 053f 75b8 cebf a588 fcbe
000002d0: b1e5 a93e a056 8fbf 9290 a03e 5f2b 89bf
000002e0: e46f 153e 30f3 913f 9138 d73c dd6f 36bf
000002f0: 2e29 0540 be12 a8be 86ff 11bf 3776 143f
00000300: 74c4 a4bf 23ea bebe b2f9 863e 0c30 10c0
00000310: 2956 1d3f 886b b63e ea0d 663e 88a5 d93e
00000320: 347d b6be 6ad3 a1bf 97b8 463d 62fe dd3e
00000330: 8d2f 503f 3386 563f 1ddd 1d40 16c7 fc3e
00000340: 16f4 ae3e 5c74 23be 49e4 acbf c4b4 82be
00000350: 8303 5ebe 4007 72bf cd68 e8bf ddb3 c2bf
00000360: 4696 5ebf e3e3 f33e 67e5 be3d 2438 99bd
00000370: dedf 9bbf 4185 203f cdc0 0bbe 23c3 43bf
00000380: 004e 863f b5a7 89bf 7f89 84bf 6e4c a83f
00000390: b34f 36bf 0faf 9abf 5fee 7b3f 7ec8 b7bf
000003a0: 4d0c 313e 456a 953e 9c44 e83f 295d 583e
000003b0: 4d4f be3e 6db1 8b3f 3610 2dbe d7b3 2abf
000003c0: 1688 803f e17f fe3e f5f7 053e ad4e 0b3e
000003d0: 2c69 06bf 2588 8ebf ed49 2e3d 6f1c 3fbf
000003e0: c80b 4f3f 2be1 ac3e 94b3 6e3f a4f1 01c0
000003f0: cfa7 8c3e f051 bb3f 89c8 ef3f a03b 053f

embedding_outside.weight f4 [2678, 2]
2.701627 -1.9234676 3.020538 -0.97668064 0.4792879 0.58672273 -1.2583318 0.24549663
-0.17761788 0.18808806 -1.5030506 -0.57470775 -1.051137 -0.9867307 0.1382184 0.22413376
0.71805 -0.810889 0.1741171 -0.011139474 2.4377933 1.3235593 1.8416485 3.2675147
-0.19078784 0.33698678 0.6921354 -0.31393826 -1.2969016 -2.340508 -1.2478038 -0.549362
0.7970583 -1.1271577 -0.95649046 1.7327164 -0.16260985 0.5794022 -2.1272416 -0.427026
0.050352562 -1.1949589 -0.1285172 0.21279432 -0.9597579 1.1638857 -0.9748991 -0.42071757
0.65292335 -0.8234528 2.2463665 1.5792965 1.3257066 0.14740045 0.035463404 -1.166467
0.6225478 1.230989 1.1300368 0.1992971 -0.81720513 -0.15075642 -1.4142048 -0.44959745
-1.6250056 -1.1651974 0.57973075 1.6904858 -0.5084127 0.07469312 -0.44651738 0.9353865
-0.6589742 0.7708266 -0.0993726 0.008271465 1.9156015 -2.1583357 -0.048819534 0.7970985
-1.4248 2.009334 1.120179 -2.481897 -0.30991068 -0.47718668 -0.116656676 -0.24283074
2.0793464 -2.1404605 1.4547646 0.08887331 -1.1292576 0.022519637 -1.5743389 -1.1411362
1.6749959 0.3584419 -1.2810419 -0.55848163 0.65369487 0.8341195 -1.1433523 -0.74285954
0.5290837 -0.07972913 -0.3806199 -0.14861684 0.96268266 0.15889727 -1.4775321 -1.9497267
1.7741711 0.25302085 -0.081127465 -0.011782917 1.3068238 0.40304905 -0.7187406 -1.6571022
0.012171151 -0.92238206 -0.67212963 -0.13919476 0.40579754 -1.1612666 -0.44230676 -0.70733947
-0.648491 0.85219777 0.3806729 -1.0136939 0.6426235 0.6189347 0.4337064 0.89602757
-1.0026624 0.5731456 -0.81900233 -0.23723783 -0.33401093 -0.008685195 -0.51697946 -1.5562936
1.1531388 1.5760202 -1.0202131 -0.66569185 -0.30169135 0.84920174 -0.88013834 0.1429538
-0.39836422 0.08306062 -0.820539 -0.90433437 -0.3271883 1.658104 0.42535895 1.0881546
1.4660698 0.65977746 -2.3713417 -1.7496568 0.54874676 0.13824396 1.0618788 -0.59800404
-1.1695898 0.9232113 0.68575466 -0.5788899 1.1186112 0.027610997 0.71242386 -0.1630225
-0.17885418 -0.67768824 -0.5857161 -0.4348345 0.17243937 -0.9593803 -1.3134862 -0.041131057
-0.08641846 0.27474904 1.3631755 0.07837477 -0.8455252 0.52999854 0.28522995 0.35435677
-0.6814634 -0.2826381 2.0793006 0.10084692 0.27237207 -0.5235983 -0.60111696 -0.28353077
1.1303232 0.7969982 0.55025333 1.2389864 -0.123832405 -0.24629445 -0.70672363 0.2559569
-1.1006477 -1.1686548 -0.8404819 -0.68765527 0.42782813 0.6708981 1.1219825 2.2103055
0.7301131 -0.21468392 0.6873405 -0.6101813 -1.2953533 0.03608368 -0.10878784 0.45523417
-2.107067 -0.32321426 -0.80789006 0.109046936 1.6821878 -0.65730333 -1.1739199 -2.3656678
0.42827523 -0.37693828 -0.10023333 -0.6609673 -0.6283659 -0.2295516 0.13961348 0.0009016599
-0.43847018 1.1698465 -0.33466917 1.6305956 0.8126904 0.19354956 -0.10890624 -1.7076001
-0.5156688 -1.6381154 2.0106227 0.39619306 2.3198366 0.0565755 0.058682907 -2.1257467
00000000: 75e7 2c40 3034 f6bf 7f50 4140 be07 7abf
00000010: 3965 f53e 7633 163f 0411 a1bf 7863 7b3e
00000020: 76e1 35be 289a 403e f663 c0bf 0c20 13bf
00000030: a88b 86bf 629a 7cbf 2089 0d3e 5283 653e
00000040: 20d2 373f 6c96 4fbf c14b 323e 5782 36bc
00000050: ce04 1c40 646a a93f 23bb eb3f f61e 5140
00000060: e35d 43be 8889 ac3e c92f 313f 84bc a0be
00000070: df00 a6bf e2ca 15c0 09b8 9fbf fda2 0cbf
00000080: 030c 4c3f b446 90bf 8fdc 74bf a7c9 dd3f
00000090: 3283 26be b453 143f ba24 08c0 27a3 dabe
000000a0: 7d3e 4e3d 6af4 98bf 039a 03be c1e6 593e
000000b0: b2b2 75bf 35fa 943f fd92 79bf 4b68 d7be
000000c0: fc25 273f cdcd 52bf 78c4 0f40 6326 ca3f
000000d0: c1b0 a93f 25f0 163e 1342 113d ca4e 95bf
000000e0: 4b5f 1f3f 0c91 9d3f 0ca5 903f 8a14 4c3e
000000f0: 5b34 51bf e45f 1abe aa04 b5bf a331 e6be
00000100: 2f00 d0bf 3025 95bf 3c69 143f d761 d83f
00000110: 5627 02bf b5f8 983d ed9d e4be 7d75 6f3f
00000120: 88b2 28bf e454 453f dd83 cbbd 0a85 073c
00000130: 6e32 f53f 2c22 0ac0 fef6 47bd a60e 4c3f
00000140: d95f b6bf ee98 0040 0762 8f3f 67d7 1ec0
00000150: 9dac 9ebe d051 f4be b2e9 eebd 9fa8 78be
00000160: 0314 0540 4efd 08c0 ba35 ba3f 3603 b63d
00000170: 838b 90bf 1a7b b83c f083 c9bf c010 92bf
00000180: 4466 d63f b285 b73e 2ef9 a3bf a7f8 0ebf
00000190: 8c58 273f db88 553f 5e59 92bf 0b2c 3ebf
000001a0: 0872 073f 0749 a3bd 9de0 c2be 032f 18be
000001b0: 5f72 763f f7b5 223e c61f bdbf a590 f9bf
000001c0: 0a18 e33f f38b 813e 2826 a6bd 230d 41bc
000001d0: 0146 a73f 725c ce3e 62ff 37bf ed1b d4bf
000001e0: 8269 473c 3b21 6cbf b010 2cbf 1289 0ebe
000001f0: b2c4 cf3e 62a4 94bf 0876 e2be 3314 35bf
00000200: 8203 26bf a229 5a3f 8fe7 c23e b9c0 81bf
00000210: f982 243f 8172 1e3f c40e de3e 1062 653f
00000220: 3e57 80bf acb9 123f 23aa 51bf 79ee 72be
00000230: 7b03 abbe 594c 0ebc c458 04bf a134 c7bf
00000240: 0d9a 933f 08bb c93f 5896 82bf c86a 2abf
00000250: 4a77 9abe 4965 593f bf50 61bf 7b62 123e
00000260: 65f6 cbbe b01b aa3d d80e 52bf 7582 67bf
00000270: 3a85 a7be c03c d43f a6c8 d93e a648 8b3f
00000280: 2da8 bb3f 2de7 283f 10c4 17c0 c1f4 dfbf
00000290: ab7a 0c3f d38f 0d3e a5eb 873f cb16 19bf
000002a0: 1eb5 95bf 9357 6c3f 9e8d 2f3f 2132 14bf
000002b0: a72e 8f3f 7530 e23c 6961 363f 5fef 26be
000002c0: 8d25 37be fa7c 2dbf 7ef1 15bf a1a2 debe
000002d0: f293 303e f399 75bf 5120 a8bf 0a79 28bd
000002e0: 29fc b0bd e8ab 8c3e 897c ae3f f482 a03d
000002f0: 5774 58bf fcad 073f a909 923e 406e b53e
00000300: 6374 2ebf f1b5 90be 4313 0540 d488 ce3d
00000310: 5a74 8b3e 8a0a 06bf cde2 19bf f22a 91be
00000320: 6eae 903f 1308 4c3f 67dd 0c3f 1b97 9e3f
00000330: d89b fdbd 9d34 7cbe d7eb 34bf c80c 833e
00000340: 06e2 8cbf 7b96 95bf d229 57bf 2d0a 30bf
00000350: 4a0c db3e fabf 2b3f 1f9d 8f3f a575 0d40
00000360: b1e8 3a3f 1ad6 5bbe 8cf5 2f3f d734 1cbf
00000370: 23ce a5bf 7bcc 133d 29cc debd 7414 e93e
00000380: 30da 06c0 577c a5be e2d1 4ebf 0054 df3d
00000390: ee51 d73f 0845 28bf 0243 96bf 1a67 17c0
000003a0: e446 db3e 0efe c0be 2247 cdbd 2735 29bf
000003b0: 96dc 20bf 930f 6bbe d6f6 0e3e 5f5d 6c3a
000003c0: 2a7f e0be 88bd 953f c259 abbe 5bb7 d03f
000003d0: 7a0c 503f db31 463e 3c0a dfbd a492 dabf
000003e0: df02 04bf c4ad d1bf 0bae 0040 d1d9 ca3e
000003f0: 3478 1440 b6bb 673d 7d5d 703d 3c0c 08c0
