config_model_files/word2vec_model_GloVe_Scratch.pth (torch, 66680 bytes, 4 tensors)

center_embedding.weight f4 [2678, 2]
00000000: 9e63 a83e 54db 0ebe 732a 10bf 682c 0cbf
00000010: 1b1e 8c3e ebac 9cbe 4d98 3bbd a09a 973e
00000020: a9d6 5a3f cb82 623f ceb0 693f 423f 47bf
00000030: e8c8 d5bf e4a7 34bf d9ee 48be e0db 843d
00000040: 57d9 2d3f 28d7 46bf e370 e3be 332a cfbe
00000050: 4a71 dc3d d7e8 693e 5388 1740 2ee0 e0bf
00000060: 4795 a23f e999 32c0 7c84 863e 62a7 e3be
00000070: 43a0 9d3f 483a 4bbe 5446 993f 8721 883f
00000080: f602 8fbe 0270 ce3e 8e28 913f 0ffa 5eba
00000090: ce35 93be db5b 90bf 7e52 6c3e 4efc cc3d
000000a0: 05a4 bcbf cfa5 403f 059e 52bf c49b a43f
000000b0: 504a 893e dfef 993e cfff c33e d6bb 473f
000000c0: d6b8 ea3e 52ae 703f 35c8 9b3e 761e d03e
000000d0: da70 f43e 3ee4 383d 1442 bd3f b388 db3e
000000e0: 32cd 61bf a750 4e3f 4b9e e6be 341f af3f
000000f0: f584 923f f678 5e3f f38e 15bf ec55 73bf
00000100: 9c8f c03e ace4 04be e7bb f2bf a50e fa3d
00000110: f79a 623e 948f e43e 7b5e 85bf 5f73 c23f
00000120: 4efe abbf 3d48 fe3e edf2 163e ac7a 863f
00000130: 114b 443f 310b 96be 0498 0d3f 7f5a d13f
00000140: 3c0a b73f 9219 61bd 3d33 173f b437 0bbe
00000150: a9c8 623e 7fda c4bd 07a1 f2be a222 ef3e
00000160: 43b3 7d3e eb6f c9be 68e4 a53f ce88 1f3f
00000170: e040 f7be a6e1 993f 50b0 bd3f 38ad 5abf
00000180: e0a2 8cbf ceba 273f ebae 1a3f b3e3 c5bf
00000190: 610c 9b3f 19c4 443f 9cca dfbe 52d1 af3e
000001a0: 3835 a3be 032e 363f 5b95 ed3d f9e5 2e3f
000001b0: 1048 d2bd dd00 943e d7ed 253e f5df 0fbf
000001c0: b613 13c0 e75f 6ebe e69a c13e c201 7c3b
000001d0: b7f4 1e3f c48e b63d 019e e83f 9a16 5ebf
000001e0: 86f9 9fbf fe92 9bbd 5d3f 183f 7d35 87bf
000001f0: 2da0 84bf 9db3 4f3f 2ea6 acbe 6d3c c73e
00000200: 02ec c13f 101b b5be 976c d23f e2c5 b83e
00000210: a1b5 693e f473 88be 3ffa df3e 3487 733f
00000220: 4151 7ebe 75d4 55bf 2108 043f 1bac 66bf
00000230: 13ee c8bd bb58 05ba 49fe d5be 138e 363f
00000240: 45d1 6fbf 1871 083f 8856 88bf 5164 74bf
00000250: 329a 403f 7c80 c73f 88fa 25bf 9d23 9cbf
00000260: edb0 623f dc93 c73e e624 e03f 6872 083e
00000270: 3378 d2bf 07c3 16c0 36a5 ca3e c229 433f
00000280: 9cea 793e 6501 6bbf bd48 653f e759 a1bb
00000290: 9ca6 8bbe 8644 e83d df78 cb3e 15ad 56be
000002a0: 4940 8abf 6ea0 8bbe 2661 0e3f 6f50 86bf
000002b0: aa81 01c0 7840 41bf 2bb9 f5bd e601 b43d
000002c0: 632a 43bf 8f12 cbbe 01fc 72bf 973e 82bf
000002d0: a33e 943e 7f63 2c3f 3b6b 3b3f 6c34 903f
000002e0: c0ff 2cbf 93e1 9d3f 04d2 ce3e b5d7 30bf
000002f0: 1bf7 12bf d910 993f 7a62 303d 56ec 5abe
00000300: c3e1 babe 36fb 6bbe a292 e03e 6ea0 343f
00000310: 9c23 22bf 343a 9cbf 428a adbe ef9d 54bf
00000320: a4d5 503e 2fd3 26bf 235b 9b3e 6b10 dd3d
00000330: f8eb 83bf c96b 7dbf d734 923e 8c58 76bf
00000340: 4e1d 01bf a801 923e b71e 97bf 4e62 5f3f
00000350: 4971 50be 92ee 7d3f 0b53 903d 6fb3 06bf
00000360: c682 2bbe 9664 83bf 08c2 303e 3971 d9bd
00000370: 912d 0240 c327 ffbe 0373 9ebe 080c 21bf
00000380: 1374 8c3e e6eb 1dbf bbc2 e63e 705b 253f
00000390: ce6d 60bf 5ceb 443e 050d 20bf 2157 cf3e
000003a0: d5c7 ddbe cf62 5cbf f01f 6cbd 808b 253f
000003b0: aaef 813f ed62 cbbc c4b8 823f 0701 8abf
000003c0: 6cc2 e8bd fc41 12be 539c 043e 585f 223e
000003d0: 0018 4bbf d792 2e3f 019a c2bf 1a21 ac3f
000003e0: 82a2 79be a38d eebe fb45 e8be e456 9f3f
000003f0: cf56 bcbd 83ae 5bbf f0f3 08bf 4577 d0bf
0.32888502 -0.13950855 -0.5631477 -0.5475526 0.2736672 -0.30600676 -0.045799542 0.29610157
0.85483795 0.88480824 0.9128541 -0.778309 -1.6701937 -0.7056868 -0.19622363 0.0648725
0.6790976 -0.7767205 -0.44422063 -0.40461883 0.10763796 0.22842728 2.3676956 -1.7568414
1.2701806 -2.790644 0.26272953 -0.4446364 1.2314533 -0.19846451 1.1974587 1.0635232
-0.27931947 0.4031983 1.1340501 -0.00085058896 -0.28751987 -1.1278032 0.23078343 0.10009061
-1.4737555 0.75253004 -0.8227237 1.2860036 0.26814508 0.3006582 0.38281104 0.7802099
0.45844144 0.9401599 0.30426183 0.4064824 0.4774235 0.045139544 1.478579 0.4287773
-0.8820373 0.80591816 -0.45042643 1.3681397 1.1446825 0.8690332 -0.5842125 -0.9505298
0.37609565 -0.12977856 -1.8963593 0.122098245 0.22129427 0.4464079 -1.0419458 1.5191458
-1.3436983 0.49664488 0.14741106 1.0506186 0.7667704 -0.29305413 0.5531008 1.6355742
1.4299998 -0.054956026 0.5906256 -0.13595468 0.22146858 -0.09611987 -0.4738848 0.4670611
0.24775414 -0.393432 1.2960329 0.6231812 -0.48291683 1.2021987 1.4819431 -0.8542056
-1.0987206 0.65519416 0.60423154 -1.5460113 1.2113153 0.7686172 -0.43709266 0.34339386
-0.3187654 0.7116396 0.11600753 0.6831966 -0.10267651 0.2890691 0.1620401 -0.56201106
-2.298078 -0.23278771 0.3781349 0.0038453196 0.62092155 0.08913949 1.8173219 -0.8675324
-1.2498024 -0.07596396 0.59471685 -1.0563198 -1.0361382 0.81133443 -0.33720535 0.3891329
1.5150149 -0.3537221 1.6439389 0.36088473 0.22823192 -0.26650965 0.4374561 0.9512818
-0.24835683 -0.8352731 0.51574904 -0.9010636 -0.09811034 -0.0005086769 -0.41795567 0.7131054
-0.93678695 0.5329757 -1.0651407 -0.9546557 0.75235283 1.5586085 -0.64835405 -1.2198368
0.8855122 0.38979995 1.751126 0.13324893 -1.6442932 -2.3556535 0.3957917 0.7623559
0.24405903 -0.91799 0.89564115 -0.0049240473 -0.2727555 0.11341195 0.39740655 -0.20964463
-1.0800868 -0.27270836 0.55616987 -1.0493296 -2.023539 -0.75488997 -0.119982086 0.087894246
-0.7623655 -0.39662597 -0.9491578 -1.0175351 0.28954038 0.6733932 0.73210496 1.1265998
-0.67577744 1.2334465 0.40394604 -0.6907914 -0.57408303 1.1958266 0.043062665 -0.21379218
-0.36500368 -0.23045048 0.43861872 0.70557296 -0.63335586 -1.2205262 -0.33894545 -0.8305349
0.20393997 -0.6516599 0.3034297 0.10794147 -1.0306387 -0.9899259 0.2855594 -0.9622886
-0.5043534 0.2851689 -1.1806248 0.87259376 -0.20355715 0.99192154 0.07047089 -0.52617544
-0.16749105 -1.0265071 0.17261517 -0.10617299 2.0340312 -0.49835023 -0.30947122 -0.62908983
0.27432308 -0.6168808 0.45070443 0.6459265 -0.8766755 0.19230407 -0.62519866 0.40496162
-0.43316522 -0.8608827 -0.057647645 0.64665985 1.0151265 -0.024827445 1.0212636 -1.0781564
-0.11365208 -0.14282984 0.12950258 0.15856683 -0.79333496 0.6819281 -1.5203248 1.3447602
-0.24378398 -0.46592435 -0.4536589 1.2448392 -0.09196245 -0.8581316 -0.5349722 -1.6286398

outside_embedding.weight f4 [2678, 2]
00000000: e559 cf3b 8779 7cbf 395f 893d b572 9b3f
00000010: 556a 9abf 8038 f3bd 9d7d f3be 61ae 24be
00000020: 1614 25bf 4066 f73e c852 6d3e b42f 323f
00000030: 51c1 acbf 8e77 c2bc 01ab 7c3f a976 96be
00000040: f0d1 183f d855 833f 7d3a 383c bf0f dbbe
00000050: f8d8 ac3d 6d6f 303e b68b 8e3f e2c4 a1be
00000060: 4001 afbf f864 1f3f 61dc 913f f68c 2bbc
00000070: 752c 56bf b674 b2bf 12cc 91be 21d3 23bf
00000080: 5e46 95bf 1dd8 903f e600 1e3f 919d 8bbd
00000090: 19e9 2cbf 88e0 1b40 2935 d53e 681a 2b3f
000000a0: e28a 82be 0991 943f b745 20be 172e 463f
000000b0: 9766 1abe 93fb dc3e 8c37 94bf ca5e 3dbe
000000c0: 61dd f6bc 6a3a 7abf 727d 943e c0ae 07bf
000000d0: 7691 74bf 3f4f 123f 8b41 e7be 114a 093f
000000e0: f230 fc3f 3f72 12bf bd81 2bbf f8c4 873d
000000f0: bd56 0bc0 0ae1 97bf 8e30 9bbf 2db9 3ebe
00000100: db3b 01be 6467 c83e f95a 80bf 8adf eebf
00000110: 5d07 d83e cc75 c9be a88e 26bf 0262 c83f
00000120: 2bc4 d63e 7fc5 9e3f b887 c83f a691 4ebf
00000130: 8645 25bf 753b b0be be03 fd3e 45f7 e7bf
00000140: 22c4 f7be dcf2 62bf d1db a53f 76da 8fbe
00000150: f54a f53e a05b 58be 9251 25bf df70 37bf
00000160: 29b4 fd3f b8d2 66bf 0bed 05bf 7ddb 0c3f
00000170: 13d4 c9be b068 2dbf 199f 7a3f 38d7 b4bf
00000180: 60f5 683f 58b6 133f 6579 203f 5a8c 9dbd
00000190: 4a30 8a3f f6bf 8abd 52f7 89be 0037 1bbf
000001a0: d159 e33f e1f8 a7be 821a dcbf baa9 d63e
000001b0: 320b 1f3f 2c81 03c0 67f8 763f f3fc 4abf
000001c0: b774 b53e bd7b f3bf 10b7 b53d 7be6 e2bf
000001d0: ee09 5fbf d88f ce3f a9b7 d5be 3459 06c0
000001e0: f877 953e 90d0 053d 9272 8dbb e375 f43c
000001f0: 2f35 9e3e 3c54 4c3f ce99 443f 3fdd 253e
00000200: bb02 02be 49ef 78bf 64ad ca3f 306a a23e
00000210: dc69 80be 506f 623e 09d8 96bf 8970 9dbe
00000220: 075c da3e b96f e23f 72b3 6e3f bc31 8a3e
00000230: 2e69 8fbf 4085 06bf 16dc ecbf 35c1 39bf
00000240: 298c 54bf ee8d ca3f 376d d6be 3fe9 f13c
00000250: c4d8 ddbe 106c b23f 395f 6b3f 1c9a f3be
00000260: 73ce e5bf 3332 863f 6f7c a0be 21f7 533e
00000270: 5633 8cbf c905 483e 6551 8a3e d388 85bf
00000280: e5ee c33b 36d7 0f3f 4863 e33e 28fb 843f
00000290: 0115 69bf cf26 e9be 4bad 0fbf f23c b9bd
000002a0: 8102 e53d fe0d 813d 8f37 98bf 4285 033f
000002b0: 435f 2d3e 7ceb e8bf e9af 24bf f7dd 6cbe
000002c0: 67ec f1bf 1ba8 d9bf ce11 b4bf c795 a43e
000002d0: c9e6 d8bd 80b3 84bf adce 093f 77b4 363f
000002e0: 5503 1c3f 6ca2 773f f43c e9be 4356 44bf
000002f0: 03b2 593d 2509 3a3e 8539 8f3e 624e fa3d
00000300: d81f 0740 01fb 173e b3f5 87bd cf49 bebe
00000310: 4389 843f 24da 2cbf 714f 06be d0c3 18bf
00000320: 9591 6e3f 05ff 2c3e c112 09bf 040d c63e
00000330: 0974 8b3e e324 d13f d1f0 9b3f 5d4b e1bf
00000340: caee 353f 5699 ce3e a439 adbe 9fc7 293f
00000350: 0b38 913b fa88 3dbf c008 fd3f 4412 8abf
00000360: 796c 123f de4a 903f 1b55 f93e b629 c13d
00000370: 6f72 b8be 3484 083b 6207 443f eaa8 4ebe
00000380: 0421 9c3f 48e8 b9bd befa 94bf 46a1 44bf
00000390: a720 35bf 1c5a d73f f03e 53bd 550f 94be
000003a0: 33cb 39c0 25a3 33bf 9281 67be ffbc 52bf
000003b0: 97e4 88bf 938c b53f 5146 123f 3985 bbbd
000003c0: b5fc 66be 251b 20bf 9239 ac3f 9a78 80be
000003d0: 29fc 453f e8d6 4abf 8362 fe3f 81f0 10bf
000003e0: 8edc 85bc 33ab 19bf 04a8 4e3e 182e d6bf
000003f0: 4ce3 5b3e 7169 c1bf d264 003f c82a 99bf
0.006327855 -0.98622936 0.067076154 1.2144381 -1.20637 -0.11876011 -0.47556773 -0.16082145
-0.64483774 0.48320198 0.2317611 0.6960404 -1.3496495 -0.023738649 0.9869843 -0.29387406
0.5969534 1.0260572 0.011244413 -0.4278545 0.08439821 0.17230006 1.1136386 -0.31595522
-1.3672256 0.6226344 1.1395379 -0.010470619 -0.83661586 -1.3941867 -0.28476006 -0.6399403
-1.1662099 1.1315953 0.6172012 -0.06817163 -0.6754318 2.4355793 0.4164212 0.6683717
-0.25496584 1.1606761 -0.15651594 0.7741408 -0.15078197 0.43160686 -1.1579452 -0.1849319
-0.030134859 -0.9774538 0.29001957 -0.5300102 -0.95534456 0.5715217 -0.45167193 0.5362864
1.9702437 -0.57205576 -0.6699484 0.06629366 -2.177169 -1.1865551 -1.2124193 -0.18625326
-0.1262049 0.3914138 -1.0027763 -1.8661969 0.42193118 -0.39347684 -0.65061426 1.565491
0.4194654 1.2404021 1.5666418 -0.8069099 -0.6455921 -0.34420362 0.49416918 -1.8122336
-0.48391825 -0.88651824 1.2957708 -0.2809636 0.4790875 -0.21128702 -0.6457759 -0.716566
1.9820606 -0.9016528 -0.52314824 0.5502241 -0.39419612 -0.67737865 0.97899014 -1.412818
0.9099941 0.5770011 0.62685233 -0.076927856 1.0795987 -0.06774895 -0.26946503 -0.606308
1.7761785 -0.32807067 -1.719559 0.41926366 0.6212646 -2.054759 0.9647278 -0.7929222
0.3544061 -1.9022137 0.08872807 -1.7726587 -0.87124527 1.6137648 -0.41741684 -2.0991945
0.2919309 0.032669604 -0.0043166364 0.029841369 0.3089995 0.7981603 0.7679719 0.1619768
-0.12696354 -0.9724012 1.5834165 0.3172164 -0.25080764 0.22112775 -1.1784679 -0.3074992
0.42648336 1.7690345 0.9324256 0.2699107 -1.1203973 -0.52547073 -1.8504665 -0.72560436
-0.8302637 1.5824564 -0.418802 0.029530166 -0.43329442 1.3939228 0.91942173 -0.47578514
-1.7953628 1.048407 -0.31344935 0.20699741 -1.0953166 0.19533457 0.27015224 -1.043238
0.005979406 0.5618776 0.44411683 1.0389147 -0.91047674 -0.4553742 -0.561238 -0.090448275
0.11182118 0.06301497 -1.1891955 0.5137521 0.1693087 -1.8196864 -0.6433092 -0.23131548
-1.8900269 -1.7004427 -1.4067934 0.3214552 -0.10590894 -1.0367279 0.5383099 0.7136912
0.60942584 0.9673221 -0.45554316 -0.76694125 0.05314828 0.18167551 0.2797357 0.122219816
2.1113186 0.14841844 -0.0663866 -0.37165686 1.0354389 -0.67520356 -0.13116242 -0.59673786
0.9319089 0.16894157 -0.5354424 0.38681805 0.27236965 1.6339382 1.2182866 -1.7601124
0.7106749 0.4035136 -0.3383304 0.6632022 0.0044317297 -0.74037135 1.9768295 -1.0786824
0.57196766 1.1272848 0.48697743 0.09431784 -0.36024806 0.0020830752 0.76573765 -0.20181623
1.2197576 -0.09077507 -1.163902 -0.76808584 -0.7075295 1.6824374 -0.051573694 -0.28917947
-2.9030273 -0.70170814 -0.22608021 -0.82319635 -1.069476 1.4183525 0.57138544 -0.091562696
-0.22557338 -0.6254142 1.3455069 -0.25092012 0.7733789 -0.7923417 1.9873813 -0.5661698
-0.01634052 -0.60026854 0.2018128 -1.6732817 0.21473426 -1.5110303 0.5015384 -1.1966181

center_bias.weight f4 [2678, 1]
00000000: 2c3e 48bd 669e c4be 9459 9f3d 0112 e93e
00000010: df2b 263e 2956 9cbf dc5a a7be 022e f13e
00000020: 1958 5c3f b9fd b6be c2ee cdbc 6280 8abe
00000030: edbe 61bf 4512 1a3f 18ff 83bf c105 8f3f
00000040: 48f1 053d 2658 613e d290 d4be 634e 3c3f
00000050: 936a eb3e c8b4 093f 2e54 393f 4028 02bf
00000060: 80b7 dfbf d266 55bf 66ae 1cc0 780d 063f
00000070: f3b8 58bc 8aa3 5ebe baea df3e 2ad5 cd3c
00000080: b117 873e 7c0a 953f 1b87 5f3c 2a10 b33e
00000090: 1a65 babe 0b92 64bf 975b 40be 9742 9bbe
000000a0: 2ba6 0fbe bdba 3fbf 97a0 383f bc64 fa3d
000000b0: e530 44be aa2d fc3e 0dcd a43f cf55 f43e
000000c0: 1020 84bf d036 db3e 9e80 4f3e f922 7c3f
000000d0: 5a30 653e a8b8 b63e b361 46be 470b 61bf
000000e0: 0fc2 9dbf 71dc e6be 5cb7 ad3e 77b2 3cbf
000000f0: 0673 fabd e5bd 7d3c 5022 97bf c6d3 413f
00000100: 2791 77bf d545 debe 9949 a13e 9133 ae3f
00000110: 066f 3d3f bd06 423f 834d 783e 0a1d 8d3e
00000120: e4f9 5c3f 4617 bbbd 4f91 403f ba64 80bf
00000130: 552f 2f3f 342e 48bf 9d4c 95bf 33d4 8ebd
00000140: 8801 1b40 75d4 c03e e454 553f 044b b93e
00000150: 1cd5 37bf f349 1e3f 96eb 933f de72 5fbe
00000160: f9de 29bd cb21 d03e 850c 95be 211a 9a3e
00000170: 72b6 f0bd cfcc d63c 8fb7 283f 5a69 ee3d
00000180: 8984 a93e 4ba9 013f 7358 eebe ca6a 51be
00000190: 798a a8bd 3d6d ca3c 7c76 c1bf 5e59 b7bf
000001a0: 6958 213e 9f0c babe 9a30 ae3f daca 9c3e
000001b0: 82c8 00bf 4e74 5fbe 063b 95be 1394 a53f
000001c0: cb30 d5bd e239 333e e278 47be 486d 4dbd
000001d0: dff3 a0be 3ba9 723f 5f26 2ebf dc20 843e
000001e0: 7a29 973e eada 783e 5930 bc3e d8ec 463f
000001f0: 6bae a23e 58bd 203f ea8d c1be 67ec 873e
00000200: 83d3 bc3e dfe5 8c3d 9c42 893f d0dc 833f
00000210: 3752 e9bb b9dd ce3e a92e ebbe 91ab c9be
00000220: f020 4b3d 491a a0bf 45b3 b2bf 0cea ffbd
00000230: f3da a73e 9c6a 213e f955 b8bd a7cc 6bbf
00000240: 2771 1f3f 58e9 ecbd e33f 903a 5d66 d9bd
00000250: 815f 71bf 1dc2 a63f 6ad2 243f 7430 3c3f
00000260: 5400 02be f7f7 6a3f fb3d c93e 583c 6dbf
00000270: b994 273f be13 103f aca3 6abe 81f0 683f
00000280: 3366 703f de8c 9c3f b5ea c53f 6582 3dbf
00000290: c3b4 8fbf 7ee8 863e e79e 5a3e b768 5e3e
000002a0: 1e34 c73e 2d49 0dc0 7f22 65bd 6d41 0e3e
000002b0: a264 583f ad8f df3e 13f5 24bf 1eb6 5f3f
000002c0: b7c1 a83e 85f7 e03f a15b a53f 8b94 4a3e
000002d0: d1d7 9b3f 03d7 c53e fc19 b9bf 6547 ef3e
000002e0: cca8 34bf 844a 843f 2bd2 36be b71d b6bf
000002f0: 767a 02c0 9e43 c5bf c8e5 333f f75e 10bf
00000300: d4f7 fa3d 65df ee3f 4439 8bbe 5d2d d43e
00000310: e515 35be 581c 8c3e b96c ca3c efcf 093f
00000320: b25f c3bf c5ef 2b3f 300e e13e feb3 113f
00000330: 50f2 893e 7f27 8b3f af56 9ebe 48b4 a73e
00000340: a43d 5e3f d2ae 0a3f ab54 233f 1baa 30bd
00000350: eb8d 96be ee29 16bf 6f20 83bf 233a a0bf
00000360: d635 e1be 3293 0e3f e9df 9cbe 107b 3d3f
00000370: 6012 d73e 667b 32bf 1098 2a3f 56b5 fabe
00000380: f107 01c0 bf39 67bf 5d33 72be bc78 ca3e
00000390: 3287 d43e 6f3c 3f3f f669 073f c1a7 a83f
000003a0: 9a4d a83e 367f 0fbf 3932 a83e 9351 d0be
000003b0: 0e30 98be bbd4 623f 839a 1bbe df43 8abe
000003c0: 5657 06c0 9500 1dbe 2702 003d b01b 0b3f
000003d0: e6f4 033e 3b23 5abf 4e66 9fbe 5018 aabe
000003e0: 8aac a23d bac8 393f 925c 1b3f bfd2 303e
000003f0: 59da 1f3f 1b6f ebbe f04c cabe 3f65 cf3f
-0.048887417 -0.38402098 0.077807575 0.45521548 0.16227673 -1.2213794 -0.32686508 0.47105414
0.86071926 -0.3574045 -0.025138263 -0.27051073 -0.88181955 0.6018413 -1.0312223 1.1173631
0.032700807 0.22006282 -0.4151674 0.7355711 0.45979747 0.53791475 0.72394073 -0.50842667
-1.7477875 -0.83360016 -2.4481444 0.523643 -0.013227689 -0.21742073 0.4373377 0.025126059
0.26385263 1.1643825 0.0136430515 0.3497327 -0.3640526 -0.89285344 -0.18784939 -0.30324242
-0.14028232 -0.74894315 0.7212004 0.12226245 -0.19159277 0.4925359 1.2875077 0.47721717
-1.0322285 0.42815256 0.20263907 0.98490864 0.22381726 0.35687757 -0.19373207 -0.8790783
-1.2324847 -0.45090058 0.33928955 -0.73709816 -0.1222897 0.015487169 -1.1807346 0.75713766
-0.9670586 -0.43412653 0.31501463 1.3609487 0.73997533 0.7579153 0.24248318 0.27561218
0.863188 -0.091352984 0.75221723 -1.0030739 0.684316 -0.781955 -1.1664006 -0.069740675
2.4219685 0.37662092 0.8333266 0.36190045 -0.71809554 0.6183159 1.155627 -0.21821162
-0.04147241 0.40650782 -0.29111114 0.3009806 -0.11753549 0.026220707 0.6590509 0.11641188
0.3310893 0.50648946 -0.46551856 -0.20450893 -0.082295366 0.024710292 -1.5114284 -1.4324148
0.15756382 -0.36337754 1.3608582 0.30623513 -0.5030595 -0.2182171 -0.29146594 1.2935814
-0.10409697 0.1750255 -0.19479707 -0.050153047 -0.3143606 0.94789475 -0.680273 0.2580632
0.29523832 0.24302259 0.36755636 0.77705145 0.31773695 0.62788916 -0.37803584 0.26547548
0.3688012 0.06879782 1.0723453 1.0301762 -0.0071203965 0.40403536 -0.45934036 -0.39388707
0.04959196 -1.2508022 -1.3960959 -0.12495813 0.32784232 0.15763324 -0.09000773 -0.9210915
0.6228203 -0.11567944 0.0011005368 -0.10615227 -0.9428635 1.3027989 0.64383566 0.73511434
-0.12695438 0.91784614 0.393051 -0.926702 0.6546131 0.56280124 -0.22913998 0.9099198
0.93905944 1.2230489 1.5462252 -0.7402709 -1.1227039 0.26349252 0.21349679 0.21719633
0.3890695 -2.2075913 -0.0559411 0.13892145 0.84528553 0.43664303 -0.64436454 0.87387264
0.32960293 1.7575537 1.2918588 0.19783227 1.2175237 0.38640603 -1.4461055 0.46734157
-0.70570064 1.033524 -0.1785361 -1.4227818 -2.0387244 -1.541126 0.70272493 -0.56394905
0.12254301 1.8661925 -0.27192128 0.4144086 -0.17684133 0.27365375 0.024710046 0.53832906
-1.5263579 0.67162734 0.43956137 0.5691527 0.26942682 1.0871428 -0.3092551 0.3275473
0.86812806 0.54173005 0.6380107 -0.043130975 -0.2940515 -0.5865773 -1.0244273 -1.2517742
-0.43986386 0.5569335 -0.3063958 0.74015903 0.42006207 -0.6971954 0.6663828 -0.48966473
-2.0161097 -0.9032249 -0.23652406 0.39545238 0.41509396 0.7470159 0.5289606 1.3176194
0.32871705 -0.56053483 0.32850817 -0.40687236 -0.29724163 0.8860585 -0.1519566 -0.27004907
-2.0990806 -0.15332253 0.031252053 0.5433912 0.1288639 -0.8521001 -0.3113274 -0.33221674
0.079430655 0.7257191 0.60688126 0.17267893 0.6244255 -0.45983204 -0.39511824 1.6202773

outside_bias.weight f4 [2678, 1]
00000000: 00a0 cebe bc7b a8be e9d0 d13e d0e8 37be
00000010: e9c4 dbbe 51a1 813e 4130 d4bf 8f8a 303f
00000020: 34fe 51bf 3d68 123f 2a2e cf3e b407 15bf
00000030: 19d2 983e 7833 7d3f 7c2f 82bf ad16 d8bd
00000040: 5d4a 453f 6995 ed3e 59c0 2d3f 318e da3d
00000050: 94c8 4c3f 1c82 c5bf 10f3 6a3f 0bd3 443f
00000060: 4e99 543d ce14 85bf bbdf b53d ee29 e53e
00000070: 208c a03f 1b12 ebbe d46d d6be 2850 f6be
00000080: 0004 1dbf a214 2a3f eeb9 34be 1d37 9bbf
00000090: 02bf 0cbf 4c14 413f 2102 953f 65a0 d9bd
000000a0: 64ed 653e 153c 40bf 2776 bc3f 189b b4bd
000000b0: 1deb 87bf e884 a0bf 9d07 813e 46fd 95bb
000000c0: 50ca 063e 1e70 60be 1050 0a3f e3f8 803f
000000d0: a26e fe3d df66 bd3f 04d1 cbbe 482d 793e
000000e0: 7e7b 563f 4602 403f 1fea 0c40 2e74 fabf
000000f0: d961 45bd f525 95bf ee3f d63e 10eb 8b3e
00000100: ecd8 b33d 0804 64bf 0134 cd3e c344 8a3f
00000110: f944 1a3c 6bc3 10be 92b4 05bf 759c 3a3e
00000120: 80f1 acbf 6b65 233f 8589 533f 8ca1 59bd
00000130: 5397 07bf c858 95be 59c6 a4bd ff50 86bf
00000140: 4094 43bf 2261 4bbe 3b42 313f 3e11 de3d
00000150: 5b9a 44bf 32b0 323c a84d 0fc0 d48a 65bf
00000160: 6cc4 5e3f d389 64be c106 1a3e aabd 063f
00000170: ce4d 833f 46ea 2d3f f88b 333d c4be 1e3d
00000180: 6259 fa3f 817e 463f 953a b3be b79c 103f
00000190: 8ab8 e0be 5183 2c3f c233 21bf fa3e 763d
000001a0: de5b 79bf 1a5c 123e bb8e 1e3f 3dca 3e3f
000001b0: 9b72 5a3f ba62 a6be 366f de3e 476d 803f
000001c0: 38d3 373f e983 8e3f 5f1b 123f 7e9b ce3d
000001d0: c9cb 1cbc 39ed 9c3e 749b 1bc0 c1ba 9e3e
000001e0: 6be0 0c3f 946a 7e3f 0a38 c73e 929f 233f
000001f0: 80ac af3e f596 c23e 63ad dfbd fe59 2cbe
00000200: 3507 a3be 0420 11bd e3ce a6be baa1 c03e
00000210: 670c 063e 6b8c 86bc fc3c 2a3f 2ebf 1abd
00000220: 01f9 3a3f f930 33bf 863c e0bc fdf3 473f
00000230: aceb d93e 27cf bf3f ca9d 42bf 0ade 8cbd
00000240: 3c1a 1440 14d9 353d 761c 653e b804 95be
00000250: b2e6 4e3f f023 ee3f f893 f93f 5fdf 483f
00000260: 82f1 e2bd d9c9 64bf b5ad 3fbf f476 0e3f
00000270: 9bdd 893e 2617 f4be d293 8e3f 7a3d 293f
00000280: 238c 98bd 0ab1 a33d 38d1 133f eb50 d63e
00000290: ddd9 a0be ecfb 263f ff9f 1c3f 9d46 a53d
000002a0: 2507 5abe dd70 323f 2535 143f ff61 fc3e
000002b0: e582 efbd 7bf3 7ebf fcdb 8b3e 4bd6 223f
000002c0: 9c93 213f 4b11 0c3e 3ae4 043f 2ee2 d73e
000002d0: 17d9 053f c7f2 31bf e17b c7bf 6e1c 6abf
000002e0: 4f36 693f 5d72 863f cb1f 6d3e a90e 81be
000002f0: e205 033f f60d 0ac0 93fd a63f 4bc4 a33e
00000300: d267 323f 5f02 f93d 7a8e ba3f 0395 1f3f
00000310: 35ad 753f c970 61be 991a 49be d0e7 bdbe
00000320: 3035 23c0 45d1 6f3f 8e71 f63e db6a 68bc
00000330: 968a b73e e4e8 30be b9f1 a4bf f9c4 943f
00000340: 4c8c 1dbf 84b2 d93e 0ae3 0c3e 8778 903e
00000350: 46f2 44bf 2ed2 873f 10fe 2e3f 106e 323f
00000360: 54fb 0dbe 356f f6be 6a01 d43e 2ced f03f
00000370: 63ca d73e 6bd6 f2be 6ddf 8e3f 95d0 2f3f
00000380: 392b babf 747d e53e f643 39be 3e11 683e
00000390: d871 f93e dec9 333f b094 df3d b591 70bf
000003a0: 9161 b93f 4269 33bf 306e dcbf bbf2 79be
000003b0: 6ebd 53bf 8784 ebbe 1c9c cb3f f8ee a0bf
000003c0: cfe8 e6be 8b3e 193f 0db0 f83f 83cb ebbe
000003d0: 4edf dfbe 56cd 993d 55a7 8ebe 1de9 313f
000003e0: aefa 16bd 9596 14bf 2cd8 a13f beb6 ab3d
000003f0: 7a89 5dbf 7d3e 06bf 6b78 9ebf a5c6 e0bd
-0.40356445 -0.32906902 0.40979698 -0.17959905 -0.42923668 0.25318387 -1.6577226 0.68961424
-0.8202851 0.57190305 0.40464908 -0.5821488 0.29847792 0.9890666 -1.0170741 -0.105512
0.77066594 0.46403053 0.67871624 0.10671652 0.7999356 -1.5430331 0.91777134 0.76884526
0.051904015 -1.0396974 0.08880564 0.44758552 1.2542763 -0.4591225 -0.41880667 -0.4810803
-0.6133423 0.66437733 -0.17649052 -1.2126194 -0.54978955 0.75421596 1.1641275 -0.10626296
0.22453839 -0.7509168 1.4723557 -0.08818644 -1.0618626 -1.254056 0.2520112 -0.0045773117
0.13163114 -0.2191777 0.54028416 1.0075954 0.12423445 1.4797019 -0.39807904 0.2433368
0.83782184 0.7500347 2.2017896 -1.9566705 -0.048189018 -1.1652209 0.4184565 0.27327776
0.08781609 -0.8906865 0.40078738 1.0802234 0.009415858 -0.14137046 -0.52228653 0.18223746
-1.35112 0.63826627 0.82631713 -0.05313258 -0.5296528 -0.29169297 -0.08045644 -1.0493468
-0.76398087 -0.19861272 0.69241685 0.108431324 -0.7679803 0.010906266 -2.2391148 -0.8966496
0.87018466 -0.22318201 0.15041639 0.52633154 1.0258119 0.679356 0.043834656 0.038756147
1.9558527 0.7753678 -0.35005632 0.5648913 -0.43890792 0.6738787 -0.629696 0.060118653
-0.97405803 0.14292946 0.6193654 0.7452734 0.85331124 -0.32497197 0.43444222 1.0033349
0.7180667 1.1134006 0.57073015 0.100882515 -0.009570071 0.30649737 -2.431363 0.31001857
0.55029935 0.99381375 0.38909942 0.6391536 0.34311295 0.38005796 -0.10921743 -0.16831204
-0.31841436 -0.035430923 -0.32579717 0.37623388 0.13090669 -0.016424378 0.66499305 -0.03777998
0.730362 -0.699966 -0.02737261 0.7810667 0.42562616 1.4985093 -0.76022017 -0.06878288
2.3141012 0.044396475 0.22374138 -0.29105163 0.80820763 1.8604717 1.9498281 0.7846584
-0.1108122 -0.89370495 -0.7487443 0.5565026 0.26926884 -0.4767391 1.1138861 0.6610943
-0.07448604 0.07992752 0.5774112 0.4185861 -0.31416216 0.6522815 0.61181635 0.08070109
-0.21291788 0.69703466 0.5789359 0.49293515 -0.11694888 -0.9959027 0.27316272 0.63608235
0.6311586 0.13678472 0.51910746 0.4216475 0.5228438 -0.69511074 -1.558468 -0.9144963
0.91098493 1.0503651 0.2315666 -0.25206497 0.5118085 -2.157102 1.3046135 0.31985697
0.6968967 0.121586554 1.457473 0.6233675 0.9596742 -0.2201568 -0.19639052 -0.3709092
-2.5501213 0.93678695 0.4813351 -0.014185633 0.3584792 -0.1727634 -1.2886268 1.1622611
-0.615422 0.4251901 0.13758484 0.28216955 -0.7693218 1.0611017 0.6835642 0.6969919
-0.13865405 -0.4813172 0.4140733 1.8822379 0.42146596 -0.47429213 1.1161934 0.68677646
-1.454444 0.44822276 -0.18092331 0.22662827 0.48719668 0.702299 0.10917032 -0.9397233
1.44829 -0.70082486 -1.7221127 -0.24409 -0.8271092 -0.45999548 1.5907016 -1.2572927
-0.45099494 0.5986106 1.9428726 -0.46053705 -0.43725055 0.07509868 -0.2786204 0.6949633
-0.03686016 -0.5804227 1.2644095 0.08384465 -0.865379 -0.524391 -1.2380499 -0.109753884
